params.npz (npz, 6632 bytes, 6 tensors)

weights0 f8 [16, 30]
000000 1e 2e fc 9e b5 87 04 40 07 e5 92 89 85 e7 0a 40
       2.5662643833836816 3.3630476711229025
000010 3c e1 0d 82 ed d9 07 40 a5 99 f1 14 75 96 d8 3f
       2.98141004185541 0.3841831879166427
000020 15 6b e7 54 c0 35 09 c0 17 14 89 b2 ee 36 f4 bf
       -3.151245749771429 -1.2634112333337322
000030 ae 4a fc c7 6c 2a 03 40 e0 d9 9c 76 6c f2 f9 3f
       2.395715296160538 1.6216854699429106
000040 34 b9 75 25 fb 30 cc 3f 0b 2a 4f ff fc 87 03 c0
       0.22024478272528258 -2.4414005228075033
000050 f2 c9 9e d8 ed 0d f9 3f 53 0f b6 0d 4a d2 03 c0
       1.5659006559113746 -2.477680308455015
000060 c6 81 eb 65 7b 8e e7 3f d7 f4 a0 67 42 82 d8 bf
       0.7361428251861575 -0.3829504024505019
000070 4c 2d e9 06 82 7c 01 40 f4 fc 8e 62 51 a7 f2 3f
       2.1857948818120914 1.1658490991538288
000080 06 4a 28 63 0d 1e c3 3f 0d 13 92 20 72 5b 0a 40
       0.14935462323826715 3.294651274164045
000090 96 53 0e 1d 0a b1 be 3f d4 2e 92 e3 75 78 e3 bf
       0.1198889084756288 -0.6084546513315794
0000a0 90 f0 7e b5 b0 83 fd 3f 21 5d d2 15 9b 9a ec bf
       1.8446509446794472 -0.8938727785306676
0000b0 9b 4b 36 56 86 82 ec 3f 12 47 80 09 8e 8f b7 bf
       0.8909331973867326 -0.09203422290763921
0000c0 4b 76 ba ac 9f 72 10 c0 84 cb b1 0d 64 d8 fc bf
       -4.111937235718481 -1.802829793447672
0000d0 4e f4 a4 9f bc 5d df 3f 71 03 9c a5 b2 a4 d4 3f
       0.49009624090451076 0.3225523583678785
0000e0 33 1d 68 95 e7 ac f7 bf 08 f0 93 56 15 55 03 c0
       -1.4797130428504033 -2.416544605626772
0000f0 0b 09 02 86 10 8b f3 3f 30 6d fe b8 a9 39 f9 3f
       1.2214513048825804 1.5765778757402806
000100 2d ff f3 70 d4 fc ef 3f 4f 0f 88 29 36 d3 f3 bf
       0.999613018619106 -1.2390653250049188
000110 97 2d 6f 1f c9 ff f2 bf 18 ec b4 ce b9 3b fb bf
       -1.187447665014451 -1.7020814966661018
000120 6e e9 3e fe 66 4f 13 40 f9 0c d4 1c 64 eb 04 40
       4.827541325177988 2.614937043401025
000130 05 2b a1 b2 2f ae f9 3f 28 0b a3 96 64 09 0a c0
       1.605025956889848 -3.2545863884455635
000140 a7 ea 36 49 a8 79 db 3f 79 9f 6e 8d fd d0 0b c0
       0.4293003764138725 -3.477046112955517
000150 6e e5 98 72 60 2d e4 bf 61 d5 f3 40 09 ac fa bf
       -0.6305391538837009 -1.6670010125356713
000160 fd f4 7a b9 6d 46 f3 bf 36 2e 56 e0 12 95 f0 bf
       -1.2046944852184531 -1.0363949549818137
000170 97 fb 96 b4 08 25 fd bf 27 8b d8 5c 2a 10 f9 bf
       -1.8215415052688735 -1.56644665019912
000180 f6 2b c4 d5 ee e7 c3 3f 31 46 30 cc c7 47 0b c0
       0.15551553190047657 -3.410049052451335
000190 58 09 fc b3 5d 68 18 40 7d 76 50 d2 5e a6 18 40
       6.101919948824012 6.1624710904703734
0001a0 ef e1 30 68 ad 17 14 40 b5 27 16 26 44 6a ef 3f
       5.023122432693056 0.9817219489934731
0001b0 7c 50 5d a4 59 c3 18 40 ce 23 5d 8d 25 b3 f0 bf
       6.190771644778689 -1.0437369844460025
0001c0 83 ce 29 88 30 6e 10 40 fd 38 26 dd f0 2f 11 40
       4.107607009460142 4.296817260225223
0001d0 8b c5 34 5d 50 f2 04 40 f3 b1 4d 43 39 61 fb bf
       2.6183173448304777 -1.7112362507860979
0001e0 58 20 22 a8 92 64 ee bf 46 32 25 3a 3b e6 14 c0
       -0.9497769626477846 -5.224835308571135
0001f0 d7 19 99 5c 1d e0 f3 bf be 47 a9 93 94 87 d2 3f
       -1.242215501509795 0.28952516956371344
000200 44 39 da 29 50 90 de 3f fc 37 b4 41 b6 68 01 40
       0.47755817496444686 2.176128876983965
000210 9d d9 17 54 b1 79 0e c0 b7 4e 74 c4 e0 39 0a c0
       -3.809420258500906 -3.27826074104254
000220 2d 60 85 0b 56 04 b5 bf b0 93 66 9c da 72 fe 3f
       -0.08209741383814224 1.9030405148889535
000230 48 5e e6 17 ce fd 0c c0 f5 44 0e d7 3a 7e d9 3f
       -3.6239282481363126 0.3983294582513531
000240 27 3e 3c 28 59 3c 02 c0 4d 97 be 64 31 6c e4 bf
       -2.27946692880484 -0.638207146421999
000250 cb 59 16 ee 93 70 c7 bf a2 df e6 97 71 c6 d1 3f
       -0.18312310338360613 0.2777370437065604
000260 da e8 99 df f3 34 e6 3f 84 ed ac e0 f4 a6 fc bf
       0.6939639441691512 -1.7907608772646606
000270 30 a1 dd 6b 67 91 d1 3f f0 d7 a4 6b 60 d5 fa 3f
       0.2744997552276969 1.6770939068642257
000280 31 9d 5e 47 23 a9 11 c0 e3 e0 ba 9a a5 a0 18 c0
       -4.415173640394003 -6.15688173070541
000290 0e a2 65 23 ff 59 0c c0 fb 68 90 c7 f7 3d f1 bf
       -3.5439436688795984 -1.077628879115365
0002a0 c4 b4 a4 e9 ae d5 be bf c6 0d 32 c4 36 c7 ff 3f
       -0.12044804767784273 1.9861362136733631
0002b0 24 77 fe c2 8d a1 05 c0 a9 00 0f 65 b8 0b 01 c0
       -2.70388367022578 -2.1307227988437103
0002c0 42 20 ad d4 36 a9 d3 bf d7 2b 28 d6 9d 4a fc 3f
       -0.30720301407973605 1.7682169309143683
0002d0 07 02 40 83 43 dd f4 bf cf 27 86 7e b0 86 09 40
       -1.3040194632486661 3.190766323536969
0002e0 0b 65 61 d3 c8 96 f4 bf c2 89 53 60 13 26 f0 bf
       -1.2868126160668136 -1.00929582240552
0002f0 61 08 61 26 b2 c1 05 40 15 4e 78 48 2c f4 fe bf
       2.7195780752527274 -1.9346125441414916
000300 79 18 53 b6 32 3b e5 bf 6c 36 63 db b5 31 ec 3f
       -0.6634763299014274 0.881068161479289
000310 56 19 c6 ab 27 19 f4 bf b7 e6 17 9c 41 14 ee 3f
       -1.2561413488307003 0.9399726914118308
000320 9f 4c ed 3d b2 ca 17 40 c0 cf b6 fd e7 04 05 40
       5.947945563896751 2.6273956128515863
000330 3e fd 73 25 20 30 11 40 ba 95 cd 8b 43 b9 fc 3f
       4.296997628406926 1.7952304326112043
000340 31 b5 3e 4e 49 ee d1 bf f2 00 e6 eb 48 ad e6 bf
       -0.2801688446150648 -0.7086529357329978
000350 68 93 2c 6c ca 2d e2 bf 15 2c 5a 71 61 a5 0f 40
       -0.5680896866584648 3.9557522636073466
000360 6a 7e dd d1 41 dd f8 bf 03 0c f5 63 50 fb e0 bf
       -1.5540178487643979 -0.530677981594977
000370 1f 25 9b 88 a2 62 ef bf 96 8d fd d1 d1 1e 0a c0
       -0.9807903926931977 -3.265048637914968
000380 48 3c 2f 43 9d fc f0 bf 38 8e 77 4b 39 bc e8 bf
       -1.0616734146494924 -0.7729765390362848
000390 b5 f7 fd 8f 79 9c 07 c0 78 3b 59 4e bc a5 00 c0
       -2.951403737009026 -2.080925571535257
0003a0 3e 59 75 4e 39 06 f4 bf f3 e2 a8 9f bc 1b fb bf
       -1.2515194954663253 -1.6942716824252642
0003b0 08 49 7a 21 12 22 06 c0 6b 86 a5 7a 4d 5a f1 bf
       -2.7666361442035203 -1.0845465460664865
0003c0 a0 db 1e cc 93 cc fb bf 85 1d 26 f7 ea 0d 16 c0
       -1.7374456380327743 -5.513591634465574
0003d0 4f fd 47 06 89 0a fd bf 44 54 c8 15 d1 15 dd 3f
       -1.8150720830306744 0.45445658805084954
0003e0 6c 82 60 21 9e 61 b6 bf c0 b3 33 4a 1f 36 fc 3f
       -0.0874270278441231 1.763213434077656
0003f0 26 c2 31 c0 02 1e 10 c0 6e 14 48 b4 fa bb 07 c0
       -4.0293073683138 -2.966786774110509
000400 93 57 c9 aa ea 82 cd bf f3 eb 09 b9 ca 7f 04 40
       -0.23055775965866285 2.5623983818199974
000410 29 d3 1b 2a f7 bf 0b c0 7d 2e d4 ca 0b 00 ea 3f
       -3.4687331475964993 0.8125056230068847
000420 85 80 42 b3 50 81 00 c0 3d 09 55 9a 44 52 ca bf
       -2.0631422047300156 -0.20563561950445744
000430 c7 f0 69 ea 42 7b e4 bf b8 f4 13 de 51 ae e7 3f
       -0.6400465563197252 0.7400292718372361
000440 30 19 f5 37 bc 04 eb 3f 88 29 df e7 01 fe f8 bf
       0.8443280308645509 -1.5620135362138132
000450 0f 9d cb a2 10 1a e1 3f de 82 b4 76 dc 0c 01 40
       0.5344317607495287 2.1312798761212965
000460 b6 65 45 64 c6 85 14 c0 5d 27 6c 08 e7 fe 19 c0
       -5.130639616714168 -6.4989281955730265
000470 9e 35 59 32 f4 24 11 c0 05 2e 88 b9 2c cb eb bf
       -4.286087786383545 -0.8685515998526517
000480 e6 c1 af d7 0c bd fa bf cb f1 fb c2 db 50 ff 3f
       -1.671154825711818 1.957240831047886
000490 74 76 45 32 c4 04 06 c0 b9 87 5d 05 31 4f f7 bf
       -2.752327339882692 -1.4568338594039985
0004a0 1b 35 f1 18 21 22 dc bf 65 9c b9 a7 d1 53 02 40
       -0.4395830863548597 2.290927229263206
0004b0 fa 39 e2 69 86 2a d6 bf 01 48 39 96 04 b2 ed 3f
       -0.34634552326397705 0.9279807027871813
0004c0 9d c9 64 6e 1b e3 c1 3f 8f e1 d8 1a a9 93 f1 bf
       0.13974326029126596 -1.0985499428480556
0004d0 34 73 db b9 52 d0 10 40 a4 06 db 99 43 a2 19 40
       4.203440574664274 6.408461002343447
0004e0 55 55 2e af 10 22 f3 3f 3c da 9c d7 91 c2 f2 3f
       1.1958166926391034 1.172502367245797
0004f0 da 16 4e 26 bd 49 20 40 05 ef ed 0f be 81 15 40
       8.144021222145444 5.376701592347449
000500 5c c0 ca 21 71 8e e6 bf cd ff 08 03 36 0e c4 bf
       -0.7048879299163775 -0.1566836848087391
000510 54 a5 7f b4 51 37 e7 bf 69 a7 86 70 24 a2 f5 bf
       -0.7255028272021868 -1.3520855327173769
000520 98 29 4e 12 0c d9 fc bf e2 d0 1e e6 3b d0 03 40
       -1.802990027909436 2.4766767480997354
000530 d8 4a ce 1a 52 6a 05 c0 a9 96 ca 30 ba 76 f6 bf
       -2.676914414806884 -1.4039861589348368
000540 e4 32 26 54 d7 d5 f3 3f f3 de e8 ef 55 8f f1 bf
       1.239707306583278 -1.0974940654249934
000550 85 94 3c b0 2d 8e b3 bf a5 17 f3 ae c9 41 11 40
       -0.0763882212891805 4.314245923602276
000560 cf 6d e7 40 d5 02 e1 3f 53 b6 d2 44 f9 5b df bf
       0.531595827832854 -0.4899886295414479
000570 0c 5c 71 e4 9b 27 10 40 5e b7 15 de 74 6a 12 40
       4.038680619639319 4.603961439204651
000580 e5 a0 9b 4f 95 a1 03 40 31 da 34 05 9d 4f 10 40
       2.4538980693215415 4.077747422552918
000590 67 f4 43 22 7d 4d 14 40 f3 a7 f0 04 97 8d 11 40
       5.075672660253168 4.38827140539978
0005a0 b0 1f d8 fb 20 e6 e9 3f ab 31 8b 41 59 4a 04 40
       0.8093418997605024 2.536303054867138
0005b0 4d 03 55 7b 2f 73 eb 3f 7c 63 04 cf 84 fc f3 bf
       0.8578107270078391 -1.24915009370872
0005c0 6f 19 9f bd d8 3c f0 bf e0 2e 9c e9 78 13 fc bf
       -1.0148551375474104 -1.7547539830583716
0005d0 5c dc f2 14 20 66 11 40 9c 71 94 cd 3c 03 f8 3f
       4.349731757472082 1.500790408178637
0005e0 30 7d 6c be 6d 24 ed bf 0d d1 56 29 29 fe 0f c0
       -0.910696861192184 -3.9991019467944455
0005f0 6c f4 b1 32 0f 89 00 40 9f 2c 6a c7 7b 38 13 c0
       2.0669235191876876 -4.805159679274907
000600 76 3c 64 2d a7 e0 d2 3f 3a 2d 8e d7 1e 8e d1 bf
       0.2949617331768829 -0.2742993454964623
000610 80 76 f2 49 b0 07 e1 3f 13 dd ab 88 93 5a df bf
       0.5321885532645894 -0.4899033388787341
000620 97 aa b1 4a 65 5f e5 bf 9c 6a f0 8f 4e 15 ec 3f
       -0.6678949793689125 0.877600937968356
000630 1b d8 47 c2 c5 3c e4 3f 57 b1 c5 44 07 47 04 c0
       0.63241851754606 -2.534681832583526
000640 2b f3 06 13 b7 5d 14 40 40 1c 44 79 15 a2 ee 3f
       5.091518685626208 0.9572856300809534
000650 5f 4a fb f4 f6 5a 0b 40 0d d7 44 e0 8d fd e8 3f
       3.419416345518854 0.7809514408351973
000660 a3 cb d2 4a ef 09 06 40 7a c0 bc f8 01 b9 fb bf
       2.7548509450511616 -1.7326678959180115
000670 72 56 58 83 6c 37 0c 40 18 d3 8b d2 df 18 d7 bf
       3.5270624409993667 -0.3608932071795592
000680 b9 14 31 a7 ec 2c 03 40 3a ca bb 72 dd 2e 0a c0
       2.396935754952747 -3.2728833163794464
000690 4a 34 70 a3 57 10 ce bf f4 c1 33 c0 e6 b5 e2 3f
       -0.2348737285650791 0.5847047571133417
0006a0 d1 0f 3d c1 5a 71 d2 3f 0e a5 33 2f 23 69 f3 bf
       0.2881686102957675 -1.2131683200662482
0006b0 49 67 b8 89 07 35 ef 3f 4d b6 20 a3 f7 a2 c3 bf
       0.9752233209467046 -0.15341086831306186
0006c0 42 f6 78 83 cc f7 fd 3f c7 c1 4c 34 19 f6 00 40
       1.872997773708804 2.1201652608799324
0006d0 db bc d2 f5 c9 81 1a 40 54 b0 a1 81 8f ab f2 3f
       6.626746979701433 1.166884905217576
0006e0 f7 fc e0 fd 1a 4d f0 bf bb ab f0 1d 74 80 00 40
       -1.0188245694296805 2.0627214755126864
0006f0 70 90 df 86 a0 fe dd bf 64 fb 05 2a 15 30 f4 bf
       -0.4686662022707031 -1.2617389337098865
000700 2a 97 8e f3 97 50 f4 bf a4 67 0f 81 21 0e ed bf
       -1.2696761621422845 -0.90797496039453
000710 19 ec b3 be c3 b5 ff bf 6b 90 3a f2 d4 48 f2 bf
       -1.9818761300400694 -1.1427812063275506
000720 80 e6 79 0d b3 ad f7 bf 9c 2f 2b 7b 01 15 f5 bf
       -1.4799070860302947 -1.3176283656384618
000730 1b a5 6e 08 d0 ba f8 3f 07 58 eb 7a 03 08 27 40
       1.5456085519202307 11.515651551464556
000740 ae 40 20 e9 08 2b fe 3f 37 f7 cd 37 ed 4a a6 3f
       1.8855065447315087 0.04354039484222343
000750 53 e9 48 ee 1e 53 1a 40 b1 21 3a 23 eb 64 e2 bf
       6.581172679138336 -0.5748191535977211
000760 78 0f 19 0c be 46 e5 3f f4 59 1c 8c 03 c5 29 40
       0.664885543469139 12.884792688809263
000770 e0 08 3b 59 5a 79 c1 3f f1 3a d5 91 6a 53 03 40
       0.13651589734042258 2.4157306092450814
000780 06 be 92 28 9f 2b db bf c9 f7 4c db f3 1f 14 40
       -0.42453745805957543 5.03120367676997
000790 b8 62 e4 5f 89 8b e0 bf 30 ad b1 23 5d b0 ba bf
       -0.5170332787411871 -0.10425359841763249
0007a0 9d 3c fa dd 4a df ff bf cc 18 38 42 af e4 c1 bf
       -1.9920147582049943 -0.13979140027385595
0007b0 1b 6a 2b 75 38 76 df bf 6e f8 77 32 7e c2 eb bf
       -0.49159060900061186 -0.8674918161120908
0007c0 da 33 bd bf 23 d9 c2 bf b5 28 97 e3 64 46 df bf
       -0.14725157606372258 -0.4886715147555479
0007d0 5f 89 34 a5 7c 40 c3 3f 0b d8 fc aa 66 0d d9 3f
       0.15040548388158023 0.39144293497099686
0007e0 7f cc 35 5f 0e d1 e0 3f e3 d3 89 43 1b 34 e2 3f
       0.5255195483754419 0.5688606566533249
0007f0 87 f6 ab da eb 08 e2 3f c2 90 70 59 5a 3e d0 3f
       0.5635890265400157 0.25380572065683904

weights1 f8 [8, 16]
000000 a5 ab 2a b2 bb 85 02 40 d6 d0 87 d9 d1 24 0e 40
       2.315299407889557 3.7679783815930064
000010 73 4b fb 02 90 ec e7 bf 6e 24 84 91 7c ca 05 40
       -0.7476272638544813 2.7238704079105025
000020 4a a9 49 29 ee fe dc bf 4e 91 65 26 b2 ca 09 40
       -0.4530597117615299 3.2239726066347094
000030 49 9a 76 0c 6e 11 08 40 17 4a 85 fc a7 6d 11 40
       3.0085106824583687 4.357086129794445
000040 52 d7 7e bd 21 b8 e0 3f c9 f4 a5 52 46 ea fa 3f
       0.5224770260890443 1.6821959713409333
000050 2a e1 f3 f8 5e d3 f8 bf 6d 00 1f c5 d2 1c fc bf
       -1.5516042446816507 -1.7570369434397677
000060 9f e1 2a 0c c7 ac e3 bf 98 e6 fc 20 d5 fb e3 bf
       -0.614841007008227 -0.6244912761969372
000070 21 65 1e 6f 84 84 d8 bf 26 28 19 ac 91 72 93 3f
       -0.3830882153648237 0.018991733674092036
000080 0d dd 57 18 eb 2f e9 3f 2b 10 8f e7 96 78 ff bf
       0.7870994067624523 -1.9669407887713628
000090 3b 29 42 5e ab fa cf 3f 31 04 99 d5 41 1e 03 c0
       0.24983732321227045 -2.3897740065881625
0000a0 20 53 7f 7e ce 57 e1 bf 20 30 d4 30 27 20 c7 3f
       -0.5419685812617878 0.18066873440000197
0000b0 31 e4 ca af ef 3f 04 c0 f9 94 19 a9 e7 6d ac bf
       -2.5312188848297628 -0.05552600802620051
0000c0 f6 75 43 02 45 e2 df bf 66 f9 26 98 01 0d f6 3f
       -0.49818539830252406 1.3781753486105912
0000d0 cc 87 bd b1 95 0f 03 c0 e4 fe 34 f5 46 8c f6 bf
       -2.382609737965117 -1.40924735816946
0000e0 b0 3f fb eb a4 7f ec bf 83 b1 c9 8f fa 10 ff 3f
       -0.8905815705311309 1.9416452042306396
0000f0 91 7b c2 0e ac 54 05 40 8f 0e 2d e6 21 d6 d0 3f
       2.666343798933163 0.26306960561871845
000100 f0 dd 78 8f d3 3e fd bf 2c ba e7 b3 72 f5 e5 bf
       -1.82783847850612 -0.6862119210980544
000110 ac b8 7c f4 a2 1c e8 bf 51 60 24 b0 8c cc f9 bf
       -0.7534956717625128 -1.6124388580847333
000120 8b 6c d8 52 8e db e7 bf 7b 31 f5 69 92 a2 eb bf
       -0.7455512636255589 -0.8635952062118543
000130 fb 40 d7 ee be 0b 06 c0 d6 5e df 8c 1e 68 e7 bf
       -2.7557352694931274 -0.7314598800103009
000140 6c 5b 02 f6 44 bf 08 40 4d 18 ce 0f 1f 4d d0 3f
       3.093393251368459 0.25470711272680974
000150 19 e9 d2 18 b5 36 ec bf 0a 57 9d 8b 81 9f f6 bf
       -0.8816781506386945 -1.4139419034667662
000160 4f 6e bf 4b d5 0b 0b 40 a4 89 1d bd 68 2a 10 40
       3.380777923373706 4.041415171554409
000170 15 8a 92 b9 fa 6d f3 bf 2c d1 30 9f 58 34 fe 3f
       -1.2143504380152355 1.8877798288713832
000180 a4 02 86 e3 8e 89 f5 3f eb 4a d7 b0 ea 49 e4 3f
       1.3460835349689342 0.634023042099526
000190 db c2 25 30 77 cb eb bf 38 f8 b9 70 b3 3c e5 3f
       -0.8685871067410419 0.663659782570682
0001a0 1c 48 ea b6 e4 3d eb bf b7 24 27 03 49 ec 07 40
       -0.851305348640611 2.9903736349411605
0001b0 d2 e5 2e 1a 2c 26 10 40 10 66 fa f4 77 4e 0e 40
       4.037277611839686 3.788314737216531
0001c0 32 8e 55 7b c7 25 f2 3f e8 cc f9 09 05 98 f9 3f
       1.1342234437696672 1.5996141805342692
0001d0 44 69 e1 65 78 ad 00 40 32 24 bf a4 04 49 0a c0
       2.084702297154907 -3.2856533881026957
0001e0 8a 8c 54 2d 0e 95 ef bf 36 4a b4 93 47 9f f3 bf
       -0.9869452367169214 -1.2263866204927019
0001f0 99 42 45 8d 1e 02 ed bf 3e d0 73 81 12 09 d1 bf
       -0.906508708876646 -0.2661787285026128
000200 f5 df 0c ba 43 4f d7 bf 1d a1 de 1b 83 a0 00 c0
       -0.36421292466138705 -2.0783750703159414
000210 a1 92 ea f3 2d e9 01 40 ff 9b fc 92 93 f7 01 c0
       2.2388571792565277 -2.2458869441356906
000220 a0 bf 6e 00 0e e6 b0 3f ae 57 65 46 b7 97 ac bf
       0.06601035605012706 -0.05584500059437346
000230 3b 68 84 eb 66 80 02 c0 9a 20 da fb e5 9f ec bf
       -2.3126963043005424 -0.8945188445077463
000240 e6 0b 6f c5 18 08 e4 3f 29 30 2f ba f0 d4 f2 3f
       0.6259883743408607 1.1769873879266106
000250 d0 a3 d9 27 75 ab 09 c0 98 b4 17 81 27 a0 fe bf
       -3.208719550446837 -1.914100174205748
000260 a4 8b c0 49 1c 7c cb bf cb 20 0a fe 02 91 09 40
       -0.21472505189111957 3.1958064886895037
000270 25 c8 9b 57 d5 fd e0 bf 19 db 7e b5 33 4c 01 40
       -0.5309855185607871 2.1622080020273526
000280 b4 36 c2 f6 4d 68 06 40 22 a9 0c a7 3d ee d6 3f
       2.8009299543399155 0.3582910662977544
000290 b3 71 d0 33 2c fc da bf 33 a7 dd 89 54 b6 f7 3f
       -0.42164139804824713 1.4820142159828265
0002a0 fb 1c 4f 8a e8 13 ce bf 46 0d fc ba ac c4 05 40
       -0.2349825549447145 2.721032582108509
0002b0 53 d5 0a 42 ce 82 0d 40 18 e8 ae c0 65 9f 0d 40
       3.6888699683719692 3.702830796563841
0002c0 7b fa e8 d3 c3 42 e2 3f 38 c5 8e 65 f7 6f f1 3f
       0.5706500185841173 1.089835545263055
0002d0 45 8f 19 f5 5f 6b 08 40 7d b4 3d 1e 4f d9 03 c0
       3.052429118006247 -2.481107937105263
0002e0 db 61 51 93 c2 2b c3 bf c9 b9 d1 98 78 db f4 bf
       -0.14977295106179053 -1.303581807089005
0002f0 46 40 52 99 03 6c df bf f7 b4 28 18 1b 83 cd 3f
       -0.49096765492231886 0.23056353263510918
000300 be 7c 00 0f 98 b0 cb 3f 5b f7 bd 4f 33 c8 fb bf
       0.21632672054781737 -1.7363770594524428
000310 0e f0 6b 28 81 58 f2 bf 11 e7 c6 96 3b 24 03 c0
       -1.1466075495691288 -2.392691781945253
000320 dc e7 2a f5 a9 bb 06 40 91 6b a1 e8 31 b8 e4 bf
       2.841632762309912 -0.647484735828913
000330 5d 01 05 79 dd 20 0c c0 41 e4 67 91 21 e9 f2 bf
       -3.516047425713778 -1.1819167785563567
000340 e6 f0 86 98 a7 a3 e8 3f 8f 39 36 56 3c d2 cc 3f
       0.7699773768468077 0.22516588410912816
000350 20 1b 9f 0e 36 33 05 c0 72 e7 af 53 c1 c6 00 c0
       -2.650005449514893 -2.097048429303805
000360 ac 40 ec 68 0a f4 bd 3f e1 36 a2 e4 12 0e 0f 40
       0.1170050150069552 3.8818719732288263
000370 56 35 ab 8b 18 99 96 3f 87 1d a9 47 0b 7a f4 3f
       0.022068389439302415 1.2797959136240438
000380 1e ce af c5 96 54 0f 40 71 e8 59 25 36 04 ec 3f
       3.9163032001759026 0.8755141000285801
000390 dd d5 de a1 0e 22 f6 bf 33 7a cf 36 06 15 fc 3f
       -1.3833147357048496 1.7551328793557672
0003a0 e2 f7 51 d9 59 d7 ef bf a0 66 7a 45 2b 3a ff 3f
       -0.9950379604849753 1.9517014230718033
0003b0 a2 90 f1 cf 7a 94 e3 3f 56 1d c9 36 17 ad fd 3f
       0.6118749677084632 1.854758466726556
0003c0 ef 69 b6 9c 68 24 ed 3f e8 3a e3 77 72 31 fa 3f
       0.9106944142143315 1.637072056113249
0003d0 be 81 46 24 1a 8c 11 40 cb 22 b2 45 56 9e f7 3f
       4.3868184726747455 1.4761564943784602
0003e0 61 84 01 5a 88 72 f1 bf 35 79 e0 5c ae 7e a6 bf
       -1.090462066255235 -0.04393525012732128
0003f0 cc c2 67 cf 8e 04 f2 bf c7 05 4c 88 5c ff e7 3f
       -1.1261127568979417 0.749922052578932

weights2 f8 [1, 8]
000000 26 66 3c 01 22 f1 c9 3f b4 68 d3 58 3d 28 bd bf
       0.2026712900194962 -0.1138952581272033
000010 26 f4 20 d8 01 ad c4 bf 3e ba 07 78 1f de bf 3f
       -0.16152976086769505 0.1244830768625684
000020 77 10 c8 d1 ab 75 ba bf 6f 77 2d 7f 07 3f c3 3f
       -0.10335801955813105 0.1503610011085885
000030 13 a9 70 70 c9 68 c1 bf 69 5e 87 a4 7b f4 c2 3f
       -0.13601034155119204 0.14808602841980026

biases0 f8 [16, 1]
000000 49 59 e6 40 29 40 00 40 03 1b 2d 00 c2 42 11 40
       2.031328684835135 4.315193178895018
000010 f5 7a 9b b2 d6 04 05 c0 50 95 0e e9 5c 75 e3 3f
       -2.6273626283358404 0.6080765296834816
000020 e4 46 a5 5a b0 cf 07 c0 52 0e fe 47 97 01 fb 3f
       -2.97641058747182 1.687888413639389
000030 91 00 73 3c 1c 3e 0b 40 4c 63 00 73 a9 56 02 40
       3.4053272936435595 2.2923153862470027
000040 67 e1 52 1f 42 96 e4 bf 39 53 c8 c0 78 76 e7 bf
       -0.6433420764724759 -0.7332118764194099
000050 a4 e4 d3 28 af db 0d 40 e7 a2 4d 9c b9 e8 ea 3f
       3.7322676839508677 0.8409088185117896
000060 05 30 4e f2 59 08 07 c0 ab a7 b4 e1 59 c1 ed bf
       -2.8790778093443827 -0.9298524292291764
000070 ad af a5 b9 90 d7 08 c0 41 63 57 9c fc f7 f2 bf
       -3.1052565101326395 -1.1855436427196795

biases1 f8 [8, 1]
000000 f6 97 b0 83 e1 94 f6 3f cc 42 97 c5 10 43 04 c0
       1.4113478798039956 -2.532746833494775
000010 55 04 ac 70 7e 6b f8 bf 5d 3a b6 4d 8a 10 f8 3f
       -1.5262436295745563 1.5040381465547832
000020 b1 8c 31 f5 d0 12 02 c0 bf 1d 66 69 c9 e5 fe 3f
       -2.2591876178499537 1.9311002843040652
000030 be d3 ee eb d4 6a ff bf aa f7 a9 28 33 92 f4 bf
       -1.9635819641236902 -1.2856933201251004

biases2 f8 [1, 1]
000000 a5 41 14 ac 99 ac d7 bf
       -0.3699096851787778
